model_weights/noninductive.pt (torch, 904201 bytes, 11 tensors)

conv1.bias f4 [256]
00000000: 21be aebc 5958 95bd a31a 9b3d 9a0b 0bbd
00000010: fa46 d7bc 67b1 1a3d 0c47 03bd e200 ebbc
00000020: d5b2 9bbd 05c6 a03c 84a2 e6bd 0d22 31bd
00000030: 46fc 5dbb 4645 743c 81c3 063e 436b 82bd
00000040: 9e80 4a3d 8364 e1bc 338b 3dbb 0000 0000
00000050: f112 953d 3c1b 373d 6aad aebb 0299 013a
00000060: ea04 c63b 2c81 d03c 177b 153b 80ff b93b
00000070: 740e 89bd 324f d63c a55c e7bc e407 4dbd
00000080: 4b27 05bc 3f19 a4bc f379 3d3d 9d43 af3c
00000090: eac7 0a3d 0000 0000 e4f0 6dbc bf5f 7ebb
000000a0: 288c 3dbd 3278 16bd a2a5 37bc bf07 a43d
000000b0: 0000 0000 0f40 88bd c70b 143d 71a5 a0bc
000000c0: 282d 863d 7953 113d 88e0 143d f3fe f9bc
000000d0: aa0c 9abd 871c 9d3d fea7 8d3b 146a e13d
000000e0: f4af 90bd 7a10 9bbd 6169 183c 6ab4 52bd
000000f0: f674 323d bb22 133d 9a4c 2fbb 9ae9 bd3c
00000100: 521f bfbd 5295 b13c 44a9 86bd a0ea 043d
00000110: ce86 85bd 6697 293d 8c2b a8ba eb58 63bb
00000120: af7f a33c 6190 9e3d 4a79 ecbb 15d2 443c
00000130: 98d4 543c 3053 613d 1050 963d d160 f33c
00000140: 1e6f c0bd e975 703c be12 143b ff86 323d
00000150: d363 483d 9903 88bb 835d 083d e5a1 dcbd
00000160: efad 783c 6825 753d 0e13 053d b565 853d
00000170: c3b3 1f3d 9dd5 d03c 5c7d 92bd f813 cc3d
00000180: 27f9 cc3c 17a2 003d 8055 973d 2758 a3bb
00000190: b9e8 7fbd d75f 4dbb 1b8a 31bc b349 363c
000001a0: 10e6 d53b 62f0 953c a1cc febc 9bdc 393b
000001b0: 815e 613d 0000 0000 4f36 f5bd 0000 0000
000001c0: 5b6f e9ba 1bb4 af3d e730 b13d 5ccd 673d
000001d0: 5cae 363d 5059 91bd ef59 cebc 43dd 0bbd
000001e0: 0f74 123b 826e f8bb b60f aabd 10b4 3fba
000001f0: 76cf abbd 52d9 013e faf5 a93d 025e 0fbe
00000200: 9995 70bb caac 7fba 2277 4a3b fc20 10bd
00000210: c36f 10bd 134b 6e3c 01ec 18bd d96f f0bb
00000220: f6d7 b33d b21c 38bd 0000 0000 3c80 a9bd
00000230: c456 f7bc 75a0 bf3c 565c 83bd 4700 c53b
00000240: 1381 2b3d c816 b0bb 0568 273c 0453 3bbd
00000250: 05c0 6f3d 10ef be3c 72ac d23b d0d1 663c
00000260: 8dfb 96bc da74 7ebd 6f9e d7bb 93b4 a9bc
00000270: d820 9f3c a5e5 993d 0cd6 a13d 78ce 29bd
00000280: aa00 fbbc 1cd6 b4ba 1310 6cbd a32b baba
00000290: 09f6 113d ce52 ebbd 5810 9a3b 950e d0bd
000002a0: 42c2 11bb c170 ecbc 8f68 71ba 64f0 43bd
000002b0: 94e2 60bd ff64 debd 0000 0000 a9a3 d9bb
000002c0: 3996 46bd 1b35 6ebc ff66 613b 5bd8 e23c
000002d0: b361 3d3d fe0c 0cbd f7c8 3e3c a59c 8cbc
000002e0: f082 d5bd fef4 093d 1047 7fbd 37a5 26bd
000002f0: 0000 0000 bb2d a4bd e98f 383c c64b 7dbc
00000300: 902b 7f3d 2c56 7a3b 971b 6bbc 6e7d c03c
00000310: bf19 64bd e8e3 983d 08c5 e43c 8d89 203c
00000320: 0141 79bd d4d3 cd3c 44ce f6bd cb49 ea3c
00000330: 6a36 6c3d 24b1 973d a309 ddbd 2239 babc
00000340: b99d a13d eb66 683d f459 44bc f8e0 79bb
00000350: 3e01 1ebc d8e9 c1bc 23af 8abd 28c2 16bd
00000360: 76a5 593d 67e8 523d e4e8 babc a77d ca3c
00000370: 0922 52bc cab5 1f3c 1b56 30bc c01b b73d
00000380: 8350 81bb d4b5 92bc c4ca 8f3d e0c2 293d
00000390: 65d0 843c 1fd2 a3bb 1503 643d fb64 17bb
000003a0: b40a 0a3c 2c20 82bc b532 163d dc68 7bbd
000003b0: c7e2 673b 8613 f4ba 14e5 3cbd 4e85 21bd
000003c0: e61e 9b3c 261c 2a3d a4d3 11bd b931 a23c
000003d0: fe8f 7e3d d88e 69bd 2803 65bd 3dd5 dbbd
000003e0: 8c8c 873c f621 16bd ace9 313c 96e9 a83d
000003f0: bb62 00bd 8cde 40bd d782 ba3b 5579 b0bc
-0.021330895 -0.072922416 0.0757344 -0.03394661 -0.026278961 0.03776684 -0.032050177 -0.028686944
-0.07602469 0.019625673 -0.11261466 -0.043245364 -0.003387229 0.014909094 0.13160516 -0.06368115
0.049439065 -0.027513748 -0.002892208 0.0 0.072790034 0.044703707 -0.005330731 0.00049437594
0.0060430663 0.025452219 0.0022808963 0.00567621 -0.0669221 0.02616081 -0.028242419 -0.050056353
-0.008127044 -0.02003157 0.046258878 0.021394545 0.03388206 0.0 -0.014522765 -0.0038814393
-0.04627624 -0.03673572 -0.0112089235 0.0800929 0.0 -0.06652843 0.036144044 -0.019610139
0.065515816 0.035479996 0.036346942 -0.030517077 -0.07521947 0.07671457 0.0043230047 0.11006561
-0.070648104 -0.07571502 0.009302468 -0.051441588 0.043568574 0.035921793 -0.002674854 0.023182679
-0.09332146 0.021677647 -0.065752536 0.03245032 -0.065198526 0.04140415 -0.0012830361 -0.003469045
0.019958345 0.07742382 -0.007216607 0.012012978 0.012990139 0.055010974 0.073394895 0.029709252
-0.09396194 0.0146765495 0.002259418 0.043585774 0.048923325 -0.0041508195 0.033292305 -0.107730664
0.015178188 0.059850127 0.032488875 0.0651354 0.038989794 0.025492484 -0.07152817 0.09964746
0.025021149 0.03140458 0.07389355 -0.004984874 -0.0624778 -0.0031337643 -0.01083615 0.01112597
0.0065276697 0.0183031 -0.031103434 0.002836025 0.055021767 0.0 -0.11973249 0.0
-0.0017809676 0.08579274 0.086519055 0.05659233 0.044599876 -0.07097113 -0.025189368 -0.03414656
0.0022347008 -0.007581533 -0.08303778 -0.0007312903 -0.083891794 0.12680557 0.082988694 -0.14000705
-0.003671026 -0.00097532256 0.0030893763 -0.035187706 -0.035262834 0.014544266 -0.037334446 -0.007337552
0.08781426 -0.04494924 0.0 -0.08276412 -0.03019274 0.023391942 -0.06414096 0.006011996
0.04187114 -0.0053738095 0.010217671 -0.045733467 0.058532733 0.023307353 0.0064292485 0.014088109
-0.018430496 -0.062123157 -0.006580166 -0.020715987 0.01942484 0.07514504 0.07902154 -0.04145667
-0.030639965 -0.001379672 -0.057632517 -0.0014203679 0.035635028 -0.11490403 0.0047016554 -0.10159031
-0.002224103 -0.028862359 -0.0009209001 -0.047836676 -0.05490358 -0.10859107 0.0 -0.0066418243
-0.048483107 -0.0145390285 0.0034393666 0.027691057 0.04623575 -0.034192078 0.011644593 -0.017164538
-0.10425365 0.03368091 -0.06232363 -0.040684905 0.0 -0.08016535 0.01126478 -0.01545996
0.062297404 0.0038198335 -0.01434984 0.02349731 -0.055688616 0.07465345 0.027925983 0.00979842
-0.06085301 0.025125422 -0.12051061 0.02859964 0.05766908 0.07406834 -0.10792854 -0.022732321
0.07891411 0.056738775 -0.011984337 -0.0038128477 -0.009643851 -0.023671076 -0.06771686 -0.036806256
0.05313631 0.051491167 -0.022816129 0.024718119 -0.012825497 0.009747932 -0.010762717 0.0894084
-0.0039463653 -0.017908968 0.07021096 0.041445613 0.016212652 -0.0049994136 0.055667 -0.002310096
0.008425403 -0.015884481 0.03666945 -0.0613793 0.0035382973 -0.0018621541 -0.046116903 -0.03943377
0.018935632 0.04153075 -0.035602227 0.0197991 0.06214904 -0.057020992 -0.055911213 -0.10734031
0.01654651 -0.03665348 0.010858934 0.08247678 -0.031344157 -0.047087237 0.005691867 -0.02154223

conv1.lin.weight f4 [256, 137]
00000000: b723 243c 7458 c53c dae6 8fbd 55f2 2bbe
00000010: 8e2e c5bd 91fa 343c 1886 8a3d 7e18 c13d
00000020: 3dc8 c4bd 43c3 12bb 1668 a13b 3fb1 05b9
00000030: d90c cbbd 11a9 c2bd b956 a5bd d68b 273c
00000040: 3b26 b43d 7a53 b93d c571 71bd 30ff 50bd
00000050: e993 c03d c5ac 063d 24b6 52be 84c8 723e
00000060: d05d 55bd de02 b8bd d683 b5bd 8a94 d93d
00000070: 8ff2 d6bd 6724 053e 0cf1 963c f9ec 8fbb
00000080: 40a4 6cbd 7695 cd3d e1f7 fb3c c22f bd3d
00000090: af17 cbbe 7870 0e3d c922 913d 55be 21bd
000000a0: e00e 823d 1358 d13c 5a66 5ebd 9dc2 c43d
000000b0: 16fa 9c3d daf2 64bd d69d 343d bcc5 473d
000000c0: 9f52 633d 51ef 7fbd 248b 95bd 985a 873d
000000d0: e4c3 b2bd 3075 ec3e 9bc6 af3d 295f 77bd
000000e0: 4b62 7bbd f5fd 813d 01bf 58be c8e4 ec3c
000000f0: 8aa8 90bc 041e 003d ee77 4c3d 3c61 db3d
00000100: dbaa f1bd d3fe d3bb e3c5 80bd 3fd2 d63d
00000110: e125 94bc b558 bbbd 3900 743d 9699 dbbd
00000120: fc85 b23d 8563 f53d 6026 b8bc 50a7 a3bd
00000130: 4a01 7d3d 5280 a9bd e2bf d2bc efc0 38bd
00000140: 43e4 433d d3c4 853d a699 b23c 3899 d8bc
00000150: 3b1d cd3d f027 babd b09b 8abd 3ff0 4b3d
00000160: bd77 8b3d b63a d3bd 0c93 02bc 1694 93bd
00000170: 22e4 aebd 59f0 a4bd c5b5 b03d 9c0e c73d
00000180: a819 943d 03d3 d3bd c56d dcbd 5e5e f83d
00000190: 539c 2c3d e4d8 9f3c cc07 6ebd 83fc 2abc
000001a0: d39a f3bd dc50 92bd 50ba 0e3d 288d a33c
000001b0: 7b31 a23d 1875 1bbd 95a2 0a3d 19a5 0abc
000001c0: 0737 663d 4a7e ee3d ca5d 123d 1c23 cebc
000001d0: 4cef f13d d4e5 c3bd 94bd 013d 6590 1fbc
000001e0: 3f1f a9bd 755a 143d b37f 3abd bb39 eabd
000001f0: 94cb babd 1954 babc 9864 68bd 1f1d e2bc
00000200: 00c2 8cbd 0218 9fbd dd4f e4bc de46 1cbe
00000210: e5cb eb3d 3863 3ebd ae72 f83d 31ec e43d
00000220: 116c c73d 2c1d a33d 09ba 20be 4177 d53c
00000230: e420 a43d b7fe a3bd a950 bebc adad 913d
00000240: 2e30 52bd 9712 dcbd 1ae4 383c f876 d33c
00000250: 0f84 96bd d2bf 6d3c 4937 8f3d f396 f4bd
00000260: a765 64bd b6a2 4cbc 5a8e 8fbd f7f4 2cbd
00000270: 75c6 22bd 6438 17bd 2327 433d edf8 183d
00000280: ea7f 1e3d deed 173d 1847 3bbd 12d0 643d
00000290: 3ff9 98bd 8325 8d3c e7e7 e9bd b039 c4bd
000002a0: 2650 9b3d facb 413d 7c71 833d c4a0 d93d
000002b0: d486 873d b463 703d 5b6e 68bd 74fb da3c
000002c0: e3eb 533d 3246 84bc 78b0 ce3d ba7f 38bd
000002d0: fba6 743d f545 59bd f5ec f43d 438f ff3c
000002e0: 268a 6dbd 8899 093d 602f c6bd a505 eb3b
000002f0: 0a7e c03d 3032 c93c f0bc f0be 48cb 193e
00000300: ca57 c0be a991 30bd e4e1 a13a e619 8a3d
00000310: 6d08 e03d fef4 f73d 3da6 473d d11c 803d
00000320: 5129 b73d 26a0 dabd eb36 f83c 2005 a7bd
00000330: 0054 5b3d 0b0c dd3d b3ff a0bd 7fe8 cd3d
00000340: 44f6 4abd 7533 7fbc 830e dbbd eaa2 f13c
00000350: f2a9 19bd 3774 da3c b15f 08be 722d 353d
00000360: be90 743c 31a2 ef3d a921 bfbd e556 af3d
00000370: 71e7 f3bd 291a 0d3d 569b 2cbd 1aec 013d
00000380: f17a e8bc 6465 94bc 882e 5cbc 98f4 a93d
00000390: f7b9 623d 3f67 dd3d aba7 5d3d 3bd5 393b
000003a0: 88b8 373b 2b70 f8bd a910 38bd e8cd 8ebd
000003b0: f14f 17bc b32e 013a 4960 df3c 7083 973d
000003c0: 84eb f1bd 8c51 543d 52af 08ba bf9f 92bd
000003d0: 0bdc b9bd 712a cdbd c7e8 883b f946 91bc
000003e0: 0adb f83c fe95 9a3c f3ab 9b3d 7db8 67bc
000003f0: d9c2 f13d a717 b53d 4449 ff3c 0442 bdbc
0.010018281 0.02409003 -0.07026453 -0.16791661 -0.0962802 0.011046068 0.067638576 0.094285
-0.09608505 -0.0022394217 0.004925738 -0.00012749898 -0.0991456 -0.09504903 -0.08073182 0.010226211
0.087963544 0.09049125 -0.05894639 -0.051024616 0.094032116 0.03287961 -0.20577294 0.23709303
-0.05209142 -0.08984922 -0.08863036 0.10624035 -0.10495483 0.13002168 0.018425487 -0.004392263
-0.05777383 0.10038273 0.030757846 0.09237625 -0.39666507 0.034775227 0.07086713 -0.039488155
0.063504934 0.025554692 -0.05429683 0.09607432 0.076648876 -0.055895664 0.044095837 0.04877256
0.055498715 -0.06248409 -0.073019296 0.06609076 -0.087287694 0.46183157 0.08582803 -0.060393486
-0.061373036 0.063472666 -0.21166612 0.028917685 -0.01765849 0.031278625 0.04991906 0.10711905
-0.11800166 -0.0064695864 -0.06287744 0.1048932 -0.018084468 -0.09147779 0.059570525 -0.107226536
0.08716962 0.119818725 -0.022479236 -0.07990897 0.061768807 -0.08276428 -0.025726262 -0.04510587
0.04782511 0.06531682 0.02180178 -0.026440248 0.10015341 -0.09089649 -0.06767976 0.049789663
0.06809948 -0.103139326 -0.007969629 -0.072059795 -0.08539607 -0.08053655 0.0862842 0.097195834
0.07231456 -0.10342982 -0.107631244 0.12127374 0.04214127 0.019512601 -0.058112904 -0.01043618
-0.11894765 -0.07144329 0.03484565 0.01996477 0.07919594 -0.037953466 0.033846457 -0.008462214
0.056204822 0.116451815 0.035733975 -0.025163226 0.118132204 -0.095653206 0.031674936 -0.009739016
-0.08257913 0.03621908 -0.04553194 -0.114367925 -0.09120861 -0.022745179 -0.05673656 -0.027601777
-0.0687294 -0.07768251 -0.027870113 -0.15261409 0.11513499 -0.04648134 0.121312484 0.111778624
0.09737409 0.079645485 -0.15695967 0.026057841 0.08014086 -0.080075674 -0.023231821 0.07113204
-0.05131548 -0.10745733 0.011284852 0.025813565 -0.07349407 0.014511066 0.06992967 -0.11942854
-0.055761006 -0.012489965 -0.07009573 -0.042225804 -0.039740045 -0.036919013 0.047644746 0.03734677
0.038696207 0.037092082 -0.045722097 0.055862494 -0.07469415 0.017229801 -0.11421185 -0.095813155
0.075836465 0.047313668 0.0641813 0.10626367 0.06617513 0.058688834 -0.05674587 0.02673123
0.05173863 -0.016146753 0.100922525 -0.045043685 0.059729557 -0.05304523 0.119592585 0.031196242
-0.057993077 0.033593684 -0.09677005 0.0071723037 0.0939904 0.024560064 -0.47019148 0.15018952
-0.37566978 -0.043107662 0.0012350646 0.06743221 0.10939107 0.121072754 0.04874252 0.06255496
0.08943427 -0.10675077 0.030299624 -0.081552744 0.053546906 0.10793313 -0.07861271 0.10054111
-0.049551263 -0.015576233 -0.10696127 0.029496629 -0.037515588 0.026666744 -0.13317753 0.044232793
0.014927087 0.117008574 -0.09332592 0.08561496 -0.11909378 0.034448776 -0.042140327 0.031719305
-0.028378936 -0.018114753 -0.013438828 0.08298606 0.05535313 0.10810708 0.05411498 0.0028355855
0.0028033573 -0.12130769 -0.044937763 -0.06972867 -0.009235368 0.0004927918 0.027267592 0.073981166
-0.11812499 0.05183558 -0.0005214113 -0.071593754 -0.09075173 -0.10017861 0.00417814 -0.017734038
0.030377883 0.01887035 0.07601156 -0.0141431065 0.11804742 0.08842402 0.031162865 -0.023102768

conv2.bias f4 [64]
00000000: fc98 cbbd ac8b 81bc e6c4 563b 70d6 6ebc
00000010: 6a9d 833e c005 883e 2247 6e3e b652 533e
00000020: c8db 5d3e ce75 873e 5a21 52bc 5ff6 95bc
00000030: 3c62 d7bc 0d4e 0fbd b22b 58bd 9dc7 243e
00000040: dce3 5a3e 44d0 83bc 227c 10bc 7d78 f33d
00000050: f89e 5f3e fc7e 14bd 63e6 ff3d 04b7 43bd
00000060: fe9e 00bd c688 613e d22b 923e c7bd 89bc
00000070: c50b 3a3e b841 6ebc 7863 273e bf08 c9bc
00000080: 48c5 5a3e 92a4 3cbc b19a 983b 4afe c83b
00000090: 8036 973b 90a1 f6bc 4cf1 863e 30f5 d63a
000000a0: 6557 883e 2844 60bc ca1c 8c3d 01ec 663e
000000b0: f9c3 793e a707 0d3e 6398 7ebc 6b8a 843e
000000c0: 98b0 443e 6ca9 48bb 19c4 723e 1b8d 92bc
000000d0: 8f7b 863e a347 e23d 4b55 8c3e 537b 3d3d
000000e0: efb6 9abc b3f3 813e 8ef3 3aba 3039 383e
000000f0: 901a a3bd edc8 71bc e3a3 343d a266 c7bd
-0.09941289 -0.015813671 0.003277117 -0.014577493 0.25706035 0.26566887 0.23269323 0.2063702
0.21665871 0.26457065 -0.012825334 -0.018305955 -0.026291959 -0.034986544 -0.052776046 0.16091771
0.21375984 -0.01609052 -0.008818658 0.11888216 0.21837986 -0.036253914 0.12495115 -0.04778196
-0.031401627 0.22024831 0.28549057 -0.016814126 0.18168552 -0.014542036 0.16346538 -0.024540303
0.2136432 -0.011513846 0.0046571125 0.0061338292 0.004614651 -0.030106336 0.2635597 0.0016399976
0.26629177 -0.013688125 0.068414286 0.22550966 0.24391164 0.1377245 -0.0155392615 0.25886855
0.1920799 -0.0030618561 0.23707618 -0.01788955 0.26266143 0.1104882 0.27408823 0.04626019
-0.018886058 0.2538124 -0.00071316294 0.17990565 -0.07964051 -0.014757377 0.044101607 -0.097363725

conv2.lin.weight f4 [64, 256]
00000000: 9d2d b9be 3059 17bf 08dc 773e 7f4f bc3d
00000010: 6e90 02bf fffa 353e d07e d7bc f659 f53d
00000020: 4046 4ebc 891d 64bf 8acd 38bd 94d2 893e
00000030: 835c e4be 1eab 4b3e 9fff 0cbf d576 efbe
00000040: 6900 fd3d 5af2 c5bd 5e03 f83d 0ccf 18bd
00000050: 04e2 a03d 4682 0d3e 3cf7 533e 5479 1a3e
00000060: fbab f3bd 112f 003e 7f5d 28bf d826 043e
00000070: a527 d93d fbc7 233e 0803 2f3e 5aa0 5f3e
00000080: b613 1c3e a567 0cbe 67b9 23bf d121 93be
00000090: be5c 1cbf b1f3 a2bd 64f0 673d 81d6 6abe
000000a0: 136d eebd e8ee 7c3d bff0 c13c 242e 6c3e
000000b0: 00bb f43d 97cc f83d f5d8 a0be 488e f7be
000000c0: dce1 a33e dc42 1c3e 53aa 723c 7b00 b83c
000000d0: 88f1 a6bd b023 b5be 86a1 4cbd 83ef d9bd
000000e0: 892b 9c3c 7582 823d 2944 a13d 8a08 c23d
000000f0: c6c0 613e a445 febe a129 2fbd f61e a2be
00000100: 44a3 5e3e db89 c0bd 4f10 1c3b 3afe 493e
00000110: 31e5 64bd 028f 0bbf 0d90 bd3b 01fc c5bd
00000120: aed7 3fbf 8069 563c 9384 e3bd 167f 723e
00000130: ce96 09bf 1571 d13b e823 1ebd 08b5 8b3d
00000140: 7d82 b83d 1c46 793e 0883 773e 6ee0 683e
00000150: dcba 30bf 363c 98bd 98ce 2e3c 5d64 d13e
00000160: b2f4 00bf c722 ec3c 0930 60be 2c03 3bbf
00000170: 8ec1 16be a1e6 083e 254e 063e 439e 19bf
00000180: fea2 29bf f7d6 e3bd 1354 0d3d 0a54 c73d
00000190: dad3 b8bd 241b 89bd 6c85 2fbe 9405 febd
000001a0: b963 9abe 0838 253e 6c1f 983c 2247 133d
000001b0: 193f 563e 528f 4d3d b611 9a3e 8ee3 9e3d
000001c0: 319c 0c3e 407a 973d 9443 91be dd61 623e
000001d0: abe4 abbe 58e0 ecbe fe12 98bd a698 cd3d
000001e0: f996 6ebd a240 283d 88a4 40be 5c4b 4abf
000001f0: f845 4a3e a7df 02bf 4208 d5bd 1e37 58b9
00000200: 0c29 7dbf 6afd 163e 3e63 da3c 5a93 1dbe
00000210: 886d e1bd 4802 713e 7c43 41bd 0bae 293d
00000220: c520 62bf 7105 41bf ac21 e0bc 950a 74be
00000230: 0247 18bf 2055 37bd 14f0 7b3e aa6d cf3d
00000240: bf98 1d3e 9715 243e 95e0 1c3d 90c9 b43d
00000250: 433c 183e 99ef 87bd 215a c8be 6052 4d3d
00000260: 7fb4 70be 6875 bebe 071f 87bd 7637 cc3d
00000270: 7f93 143e 7eea d13d 9533 3a3c bd48 263d
00000280: 46db 883d 4c2a 7b3c 8964 cf3d aff9 133e
00000290: a668 133e 48bc 0dbf 1ec9 2a3e c7df b93c
000002a0: 14f0 cfbe 9c27 aebd eb37 1ebf 9403 863e
000002b0: 210e 813e 5ad8 b23e b845 b83d 856f 30bd
000002c0: 0df4 b73e 0651 fdbd bb09 c4be 9f72 94be
000002d0: da0b f73d 470e 3a3e d30a febe a164 f6bc
000002e0: fae1 91be ff23 23bf d0c4 673e a625 8a3d
000002f0: b12b c3bd c8b4 bebc 2b9d 15bf 8206 9bbe
00000300: 1640 443d c842 353c 60c8 42bf 8320 fe3d
00000310: 909a 17bf d3da 7cbd 9fb1 983e 92ae 8c3c
00000320: b0c4 aebe 9125 cc3d 953a b73c df56 60be
00000330: 5763 b13e 1114 97bc ea6a 56be a757 d53d
00000340: aa52 7b3e f2eb ba3d 4db9 00bd 5991 043e
00000350: 6a9e d93d abe8 bbbd d303 dabe b818 20bf
00000360: 1278 883e d17e 6a3e 2f47 14bf 4b65 89be
00000370: 9b49 d8ba ab1c c8be e94e c13d e9e7 923c
00000380: ad45 8a3d e0ac 983d cbf1 853c ec2d 123d
00000390: 6472 a33d 3dca 923e 629b 2e3e ee16 cf3d
000003a0: 83d6 1abf cf26 90be 735c f1bc 90d0 963e
000003b0: dcbc f83d 40ee 15bf 3fda 14bf 017b 633e
000003c0: 7502 4b3e bfa9 18ba cc7f 28bf 6d00 eebe
000003d0: 59fa d63c 5bb2 1abc b763 9ebe 9d65 c43e
000003e0: 2537 333e 415d 653e f7e2 05bc 2165 a03d
000003f0: 5759 643e 712c 1abd 3333 8fbd 0d3f b5be
-0.36167613 -0.59120464 0.24205029 0.0919485 -0.5100163 0.17771529 -0.026305586 0.11980049
-0.012589991 -0.8910757 -0.045117892 0.2691847 -0.4460183 0.19889495 -0.55077547 -0.4677035
0.12353594 -0.096653655 0.12110017 -0.03730683 0.07855609 0.13819227 0.20699781 0.15085346
-0.11898037 0.12517954 -0.65767664 0.12905443 0.10603265 0.15994255 0.17091 0.21838513
0.15241894 -0.13711412 -0.63954777 -0.28736737 -0.61079013 -0.07956637 0.05662574 -0.22933389
-0.11641898 0.061751276 0.023674367 0.23064476 0.1194973 0.121483974 -0.31415525 -0.4835074
0.32008255 0.1525988 0.014811116 0.022461167 -0.08151537 -0.3537879 -0.04995873 -0.10641386
0.019063728 0.06372539 0.07874329 0.09474285 0.22046193 -0.49662507 -0.04276431 -0.31664246
0.21741968 -0.09401294 0.0023813432 0.19725886 -0.055882636 -0.5451509 0.0057849945 -0.096672066
-0.74938476 0.013086677 -0.11109271 0.23681292 -0.53745735 0.0063916543 -0.03860846 0.06821638
0.09009264 0.24343151 0.24171078 0.22741863 -0.69035125 -0.07433359 0.010669373 0.40896884
-0.50373375 0.028825177 -0.21893324 -0.73051715 -0.14722273 0.13369228 0.13115747 -0.60007113
-0.6626433 -0.11124986 0.034504008 0.09732826 -0.090247825 -0.0669463 -0.1714074 -0.12403408
-0.30154207 0.16134655 0.01856967 0.03595651 0.20922507 0.05018551 0.30091637 0.07758246
0.13731457 0.07396364 -0.2837187 0.22107644 -0.33572897 -0.4626491 -0.074254975 0.10038881
-0.058249447 0.041077264 -0.18812764 -0.7902124 0.19753253 -0.51122516 -0.10401966 -0.00020619898
-0.9889076 0.14745107 0.02665865 -0.15388241 -0.110072196 0.23536026 -0.0471835 0.041425746
-0.8833125 -0.7539893 -0.027359806 -0.23832162 -0.5948335 -0.044758916 0.24603301 0.10128339
0.153903 0.16023861 0.038300116 0.088275075 0.14866738 -0.066374965 -0.39131263 0.050127387
-0.23506354 -0.3719895 -0.06597715 0.09971516 0.1450939 0.10249804 0.011364837 0.040596712
0.06682448 0.015329909 0.101265974 0.14450715 0.14395389 -0.5536542 0.16678283 0.022689713
-0.40612853 -0.08503649 -0.61804074 0.26174605 0.25206092 0.34930688 0.08997673 -0.043075103
0.35928383 -0.123689696 -0.38288674 -0.289937 0.120628074 0.18169509 -0.49617633 -0.03007728
-0.2849272 -0.637268 0.22633672 0.06745462 -0.09529818 -0.023279563 -0.58442944 -0.30278403
0.04791268 0.011063285 -0.76087 0.12408545 -0.5922022 -0.061732125 0.29823014 0.017173085
-0.34134436 0.09968103 0.022366801 -0.21908139 0.34646103 -0.018442186 -0.20939222 0.10417109
0.24543253 0.09127034 -0.031426717 0.1294607 0.10625918 -0.09175237 -0.42581043 -0.6253772
0.26654106 0.22899939 -0.5792112 -0.26835093 -0.0016501428 -0.39084372 0.09438879 0.017932849
0.06751571 0.07454848 0.016350647 0.035688326 0.07980803 0.2866992 0.17051461 0.10111795
-0.6048357 -0.2815461 -0.029463029 0.29455996 0.12145397 -0.58566666 -0.5814552 0.22214891
0.19825156 -0.0005823634 -0.6582 -0.464847 0.026242422 -0.009441937 -0.3093545 0.38358775
0.17501505 0.22398855 -0.008171788 0.07831789 0.22299705 -0.03764004 -0.06992187 -0.35399666

out.0.weight f4 [145, 832]
00000000: f041 643d 546f eb3b a89c 7c3d 2174 f23b
00000010: 467e e93d 7f70 0f3e e676 203e 3564 bc3c
00000020: 5cf0 c73c 89e2 f63d 6d68 6f3c df62 f93c
00000030: 61da f23d 03d8 dc3d d813 cc3c aebf b03d
00000040: 26c6 0d3d 1d60 18bd 6147 fcbb 88a9 af3d
00000050: 73f5 163d 9b11 00bd 312b c33d aa3e 47bd
00000060: 097f 903c a0b1 553d c78b 363d af3f a43d
00000070: b05d aa3d c9b0 503a 53ed e53d 5550 0f3d
00000080: 3f6a 943d b74c 11bd c3c9 6b3d 31a8 483d
00000090: 4590 d7bc 5c8c 003c ca26 cf3d bf9d 443d
000000a0: 8edc c73d eb45 9b3d e221 b4bc 1064 3e3e
000000b0: 13ff 613d 8351 f83d 2297 9ebc eeb9 bd3c
000000c0: aca6 013d 9d56 a63c b239 933d 538c 91bc
000000d0: 6367 0b3e f6b0 0d3e 77ec 103e 2a48 a4bd
000000e0: ac89 d4bb 3f7c c93d f85e b43d b3b0 ef3d
000000f0: 9cf6 b43d adce 1e3d da44 9d3d 6db4 e43d
00000100: 95f8 a13d c215 363d 4d68 0f3e 76d9 2139
00000110: 0123 cd3d 97c9 eb3c df9f d83d 96d0 873d
00000120: af20 6f3d 919c 1c3d 7a36 2c3e 5b9b 253c
00000130: 9050 533a 4d4c 8d3d 3129 283d fa65 ab3d
00000140: 53a6 9a3d 00d0 5fbc 2217 6dbd a8b7 383e
00000150: 3298 dc3c 2e8c 79bc c4f1 963e ecfa 203d
00000160: 0567 3abd 7102 033e 60ee 073d 19bc 8b3d
00000170: 05d3 62bd c9cd b93b 01c2 b03c 8e36 d03b
00000180: 2e2e e5bc 4390 0fbc f721 cb3d fdfe ac3d
00000190: ad66 933d 4df1 57bd e603 873d 7870 293d
000001a0: 3e84 56bd c032 693d 8c1b b13c b707 063e
000001b0: 5eca b63d e653 fcbb 9b42 d8bb 6ef4 b83d
000001c0: 4908 b33d 29fa 19bd 0e27 653d 1ebe 2b3c
000001d0: 5a71 ab3d a5d7 fd3d cf66 783e 20d6 313c
000001e0: 968e 933c 3d26 d13d d406 b63d 807e 6a3e
000001f0: 4dc0 753d 1cc1 68bd e92c 633d 862e e13d
00000200: 3a70 c03d a256 853d c80b 9bbd bd1b 85bc
00000210: 2095 d63c eaab a03d 7a74 ec3d a1e0 e83d
00000220: 6ab2 f93d 9ba5 953d 280f 073d 1ce0 53bb
00000230: 9802 0c3e aefe f93d 80e5 2c3d a06c 08be
00000240: 96b4 0c3e 3ef5 89bd dcb6 28bd 2463 073e
00000250: 5bc6 fd3d 70c7 11bd e370 7b3d 8a1b 483d
00000260: 01ca 8dbd 7bb9 ba3d ffad 453d 3dbb c43d
00000270: b3a4 48bd 33ef e73c 00a8 21bc d73f f7bb
00000280: 9113 e43d 4d0e 45bd 9b68 6c3d d4eb 733d
00000290: a704 0dbd 98df bfba f2ba ea3d 5782 013d
000002a0: 5d0d d53c 2ed4 353d 01ed cb3d 1938 9f3d
000002b0: d3b6 e23d bb12 be3d a628 a83b 9e06 913d
000002c0: 9bbc d13d 8cfe 233c 1775 c63d 32c4 1d3c
000002d0: 5a50 bf3d eeca 0cba 5d02 2a3e 3227 273c
000002e0: 7fbf fcbc 813c fc3d 6bcd d23d 7c99 013e
000002f0: c5a0 e73d 60f1 4d3d 536c d83d a6d4 723d
00000300: ce8b e83c 8502 a0bc ec6a c5bc 9d93 653c
00000310: eca9 2fbd 25d6 d23c a411 f43c 06c2 f43c
00000320: 305f 24bb 97fb 51bd c7f2 353e 4c74 49bc
00000330: c595 1b3e 6991 9f3d 4677 953d e654 10bc
00000340: 23c3 4ebc 1e36 79bd 692a 39bd 2924 5b3c
00000350: 8573 39bc 1e13 63bc 0ce6 863d e2f4 283d
00000360: 0bec 1bbd d9bc 3abd 01b7 59bd 7efc 993d
00000370: ce51 b8bc f6ac 36bd 2a57 09bc fa63 3b38
00000380: de5f 44bd 2dc5 0bbd e5c9 1b3d 23bb 7f3d
00000390: a141 acbd ce26 093c c3b6 b5ba ecba fabc
000003a0: 5b22 98bc 5c89 4b3d 3bd2 62bd 7b34 ec3d
000003b0: a0d9 593d fba5 85bd 903b 073b 2655 83bc
000003c0: c605 663d 0419 ed3c 29bd 5f3c c1f2 35bc
000003d0: fba5 f83b ab54 55bc 7f12 163d 4eff c23c
000003e0: 9266 8cbc 15f9 063d d40b d83d d1a5 2d3d
000003f0: af80 993d 93e5 4cbb aa87 c1bc 23ae 5e3d
0.055726945 0.007184902 0.061672837 0.0073990976 0.11401038 0.14007758 0.15670356 0.022997001
0.024406604 0.12054927 0.014612299 0.030442653 0.11858059 0.107833885 0.024911806 0.0863031
0.034612797 -0.037201036 -0.0076989387 0.085772574 0.036855172 -0.03126679 0.095297225 -0.048643745
0.0176387 0.05217135 0.044566896 0.08019959 0.08318651 0.00079609134 0.112269066 0.03498872
0.07246827 -0.03547355 0.05756546 0.048988525 -0.02631391 0.007845964 0.1011482 0.048002
0.09758864 0.07581695 -0.021988813 0.18592858 0.0551749 0.12124922 -0.019359175 0.023159947
0.03165309 0.020304972 0.07188739 -0.017767107 0.13613658 0.13837036 0.14152704 -0.08021577
-0.0064861383 0.09838151 0.08807176 0.117036246 0.088360995 0.03877132 0.07679148 0.11167226
0.079087414 0.044454344 0.14004631 0.00015435167 0.10016442 0.028782649 0.10577368 0.066315815
0.05838078 0.03823525 0.16817656 0.01010784 0.0008061016 0.06899319 0.04105491 0.0836906
0.07551255 -0.013660431 -0.05788339 0.1803881 0.026928041 -0.015231175 0.29481328 0.039301798
-0.045508403 0.127939 0.033186316 0.06822986 -0.055377025 0.0056702835 0.021576883 0.0063541597
-0.027976122 -0.008762422 0.09918588 0.08447073 0.07197318 -0.052720357 0.065925404 0.041367024
-0.05237221 0.056933165 0.02161958 0.1308888 0.08925317 -0.007700431 -0.006599737 0.09030996
0.08741815 -0.037592087 0.05594545 0.010482339 0.083712295 0.123946466 0.24257968 0.010854274
0.018012326 0.102123715 0.08888021 0.22899818 0.059997845 -0.05682479 0.05546275 0.10995202
0.093964055 0.065106645 -0.075706065 -0.016248578 0.026194155 0.0784529 0.11545654 0.113709696
0.12192233 0.07306977 0.03297344 -0.0032329625 0.13672864 0.122067794 0.042211056 -0.13322687
0.13740763 -0.06736229 -0.041190013 0.13221413 0.12391349 -0.03559059 0.061386954 0.04885439
-0.06923295 0.09117409 0.04826164 0.09606025 -0.048985194 0.028312301 -0.0098667145 -0.007545452
0.111365445 -0.04810934 0.057716947 0.059551075 -0.034428265 -0.001463878 0.11461438 0.031618442
0.026007349 0.044391803 0.09957314 0.07774372 0.11070027 0.09280916 0.005131799 0.0708134
0.10241052 0.010009419 0.09690302 0.009629296 0.09341498 -0.0005370815 0.16602464 0.010202216
-0.030853031 0.12316228 0.102930866 0.12656206 0.11309961 0.05027902 0.10567536 0.05928483
0.028386977 -0.019532451 -0.024098836 0.0140122445 -0.04288666 0.025736878 0.029793568 0.029877674
-0.002508115 -0.051265325 0.17768393 -0.012295794 0.15193851 0.07791407 0.0729814 -0.008809304
-0.012619766 -0.060842626 -0.04520646 0.0133753205 -0.011319046 -0.013859538 0.06586847 0.041249163
-0.038066905 -0.045590255 -0.05315304 0.07518862 -0.022499945 -0.044598542 -0.008382598 4.4677385e-05
-0.04794299 -0.03412359 0.03803434 0.062434327 -0.08410955 0.008371068 -0.0013863671 -0.03060671
-0.01857107 0.049691543 -0.055376273 0.11533447 0.05318606 -0.06525799 0.0020634867 -0.016031813
0.05615785 0.028942592 0.013655939 -0.01110524 0.007588146 -0.013020675 0.036638733 0.02380338
-0.017138753 0.032952387 0.10549131 0.042394463 0.074952476 -0.0031264767 -0.02362426 0.05436529

out.0.bias f4 [145]
00000000: 87f4 ac3d 2ed2 ac3d fef1 783d 2d0a 5b3d
00000010: f225 903d 0259 5a3d 65a6 2e3d 455a a73d
00000020: bf0a a43d 77fe ad3d 3a94 113e bfe0 c63d
00000030: 38f2 0a3e 8bf4 b03d 8bda d43d a4c0 b73d
00000040: cb2c 2f3d 6339 b6ba 596c d13d 3415 dd3d
00000050: d625 e03d 6784 6a3d 153c 533d 4604 003d
00000060: daef af3d f095 473d 2f70 853d 6be9 a43d
00000070: 126d 923c d14a d13d 5a14 3a3b a1fa e53d
00000080: 3cf1 223c f952 ba3d 5ceb 453d 9961 da3c
00000090: 22af a9bb 2d1d be3d 3f2b 033e 7311 a03c
000000a0: e11f 6e3d b133 433d 693f f53d 6d64 b3bd
000000b0: 45ed d6bd f54e 8e3d f9b7 ab3d 0861 0d3d
000000c0: 8d5c c63d 4127 ad3d 4407 b73d 4df2 f73d
000000d0: deef 783d 95e2 9a3d c744 49bd e946 a53c
000000e0: c958 bb3d 698a 0f3e 1895 833d 3b71 9c3d
000000f0: 217c cd3d 0f0e 453d 3015 9d3c 013e 1e3d
00000100: 680e 82bb 3da0 a73d 67ea bf3d 79a2 cc3d
00000110: 4ec1 293d a61d dd3d 0e2b 6e3d f51b ad3d
00000120: 3265 863d e832 df3d 5371 cf3d 1f6a 0e3e
00000130: c3e8 2b3d c762 4c3d 44ed 6d3d 949f 863d
00000140: 0143 503d 2e09 f33d cefd 0c3d f47a 4c3d
00000150: e99b 763d a8a3 843d 2211 9c3d ded7 933d
00000160: eb1c b53d 637a b43d 2232 2f3d 679a 393d
00000170: 5dad b53d 6cfc bb3d d94a 523d 1a64 ea3d
00000180: cd8a c13d 2133 933d 1eb0 733d 6c6f 523d
00000190: 3057 733d b73e b83d 1c4e 903d e28a a43d
000001a0: 871c ab3d e4e6 133d acc2 0b3c 04a0 cb3d
000001b0: fe92 893d 2f32 dc3d 24b1 773d f0fc e13d
000001c0: 0b07 ab3d 80f4 623d 1de5 bc3d 82a5 cb3d
000001d0: 91ce e43d ec58 a53d 54e8 7e3d 623f 4fbd
000001e0: a840 923d ab3f 603d f579 8a3d da8b 9f3d
000001f0: bba0 563d 5e56 c63d 5052 7a3d cd84 dc3d
00000200: 3bd6 313d 60a2 a33d d5c7 ae3d 5874 b83d
00000210: 6bab 8bbe 448b 60be b031 39bd e4e7 11bd
00000220: ec00 66be 91f7 83be 683a a6be 98f7 10be
00000230: 63fb 92be eedf 63bd 6acb 1dbe f94c 1ebe
00000240: 2702 c3bd
0.084450774 0.08438526 0.060777657 0.0534765 0.070384875 0.05330754 0.042639155 0.081715144
0.08009862 0.08495801 0.142167 0.09710836 0.13568962 0.08640393 0.10393246 0.0897229
0.042767327 -0.0013902601 0.10225744 0.1079506 0.10944717 0.057255175 0.05157097 0.031254075
0.0859067 0.048726976 0.06515538 0.080523334 0.017874274 0.10219348 0.0028393478 0.11229444
0.00994521 0.09097857 0.04832016 0.026657866 -0.005178348 0.092829086 0.12809466 0.01953957
0.05813587 0.04765672 0.11974985 -0.08759389 -0.10494474 0.069486536 0.083846994 0.034516364
0.096856214 0.08454753 0.08936933 0.12106762 0.06077563 0.07562748 -0.049137857 0.020175414
0.09147794 0.14017643 0.06424922 0.076387845 0.10033441 0.04810911 0.019175142 0.03863335
-0.0039690025 0.0818486 0.093708806 0.09991927 0.041444115 0.107966706 0.05814653 0.08452598
0.0656227 0.108983815 0.10129037 0.1390767 0.041970026 0.04989889 0.058087602 0.06573406
0.05084515 0.11866985 0.034421735 0.049921945 0.06020728 0.064765275 0.07620455 0.07218908
0.08843406 0.08812406 0.04277242 0.045313265 0.08870957 0.09179005 0.05134091 0.11444874
0.09450302 0.071874864 0.05949413 0.05137579 0.05940932 0.08996337 0.07046148 0.08034302
0.083550505 0.036108866 0.0085303 0.0994263 0.0671749 0.10751759 0.06047167 0.11034572
0.08350953 0.055408955 0.092233874 0.099436775 0.11172212 0.08073601 0.062233284 -0.050597556
0.071412385 0.05474822 0.06761543 0.077903464 0.05239938 0.09684442 0.061113656 0.10767517
0.043417197 0.07989955 0.08534209 0.09006566 -0.2727922 -0.21928126 -0.0452134 -0.03562154
-0.22461289 -0.25774816 -0.32466435 -0.1415695 -0.28707418 -0.055633478 -0.15409628 -0.1545905
-0.09521895

conv1.bias f4 [256]
00000000: b6d7 9cbe 9ebe 7ebd b980 c53e aad3 45bd
00000010: 605a 823e 2077 6fbe 32da 23bd 1d78 00bf
00000020: 5f95 74be 7c43 2c3d 755c b9be 1aa3 c4bd
00000030: db65 c9bd 16b2 a43e e832 8b3e 72d6 07bd
00000040: cef6 2dbe 0f0e 433d b30b debd 7300 00bd
00000050: 5868 c03e d40f 463e fe95 29bd b40e a6bd
00000060: 0fa9 d3bd bb52 e3bc d094 aabe e8d6 80bd
00000070: 51d2 55be 39fc 3c3e c39c 51bd 6990 0abd
00000080: 5a1e a6be c37e 30be 1aeb a73b 4906 90be
00000090: 0000 0000 04a1 bbbe f1de c2bd fefe 933d
000000a0: 90b8 7ebd 2140 d7bd e2a9 04be c48d cf3b
000000b0: 2ea6 9ebd 44cb 01bd 59fa a1bd c57b f7bd
000000c0: 2e53 2bbe b839 e7bd 97ea abbd d46d 00bf
000000d0: eb96 84bd 555d f8bd ecfc a1bd 45bc 81bd
000000e0: d4ed 84bc 568c c7bc b51b 3fbe 0fa3 14bd
000000f0: e92e 00be 30f4 84be 77f3 083e b179 a1be
00000100: d698 46be ee01 edbd daa6 753e 32e4 b6bd
00000110: 292d 91bd b6a9 2cbf 4539 65bd bd71 3ebb
00000120: fff6 54be edcb e5bd 4d15 ddbd 11bb 39be
00000130: 0000 0000 f91a 6fbd 5296 afbd 86a0 8fbd
00000140: 45c5 b5bd 35db b53c 5d9c f6bc d55d 50be
00000150: 6a9b 8abe b5b3 8b3e 5c64 a0bd 5aef 9f3e
00000160: 086c 2cbe 5ca9 fdbd 08d6 89be 2874 42bc
00000170: bfe6 5bbe 2a34 7cbe 15b8 c23c f880 95be
00000180: 4b27 b4bd 356d babe 5dda ad3e 1109 8cbe
00000190: ee61 52bd ad58 48bd dd08 673e 5e2c 98bc
000001a0: dce4 ccbc 17b2 a3bd d774 99bc f3da 35bd
000001b0: 046d 85be 3ece 28be d5e5 933d 91c2 b4bd
000001c0: fbb5 a3bc aa87 893e 62bd a4bd bb58 d23e
000001d0: 2e54 6cbe 43e7 e13d e10d 9e3e b0fd 863e
000001e0: c49b afbd 2bd7 0bbd 44e4 26bd 34c2 abbd
000001f0: 2d0d 4dbe e17f 04bd 28a6 323d 0e0d 403e
00000200: 906a d0be 1e57 383e 45e4 eabd 698e 9fbd
00000210: 5366 85bd 8c34 d9bd 93f2 14bd acdc 0ebe
00000220: 092e 8fbe d96d 9abe c9d4 00be 6ebb 4bbc
00000230: c177 b3be 9921 38be 1ee0 773e 01ca 23be
00000240: a8d2 00be 9789 bf3c 2084 8dbd 6152 a8bd
00000250: 964a 1fbd b14c 6d3e 0000 0000 01eb 40be
00000260: 03be 77bd b292 0bbd c356 15be 1f66 e8be
00000270: d76f 0abf c26f efbc 10d7 90be c514 fabe
00000280: 2cf1 7a39 253a d73c c966 d5bc c65b c8bd
00000290: 13fa 1ebd 96ac f9bd f301 a1be eb12 3bbd
000002a0: d83e 093c 9c06 303d 4e8a 483c fd81 e33d
000002b0: 965f 3e3d a6e0 0a3e bfb8 4abd bf78 7f3c
000002c0: 3557 b1be 7165 51be 7a2e 6ebe afb2 ecbd
000002d0: 7c68 bebd e605 c0bc f2d2 0dbd 4191 60bd
000002e0: 6928 ff3e 98de 343d fa48 35be cfb0 42be
000002f0: b9bf 94be 93fd d9bd 2703 2dbf d345 a73e
00000300: 21c1 213c e55c e6bd 229e 87be 3b61 933a
00000310: 18c8 9a3e ea17 9c3e 1232 83bc 5cad 8bbd
00000320: 1e30 96be 4606 d7bb e972 533e 496b 62be
00000330: d7b4 f4bd 8fb3 b5bd 6b4c 37bd e4f9 103d
00000340: 93ef c5bd 5fd6 643e 09f9 8ebe c05a 83bd
00000350: 61d8 523e 0000 0000 2c25 ccbd 74ba ee3c
00000360: 8bf4 64be 8989 01be fab0 f83d 9c99 b4bd
00000370: 1b51 2abf 8ce3 27bd 1f13 a83d 49b1 87bd
00000380: 6499 1fbe b807 e33c f25e aebd 8dfd 4cbe
00000390: 1451 df3e 7641 a8bd 0d91 fcbc 0000 0000
000003a0: dfdb 88bd 132b b6be 7d97 06bb 40ec b03e
000003b0: 18b8 03be f43d a5bd 070f 81bd a1e7 44be
000003c0: f667 ba3e bc9a 73be 0377 2fbd ba47 f6be
000003d0: 7f25 dabe 2931 62bf 99b7 a7bc ef90 dc3e
000003e0: f7be 86bd f0c6 bdbd 8554 7abd 0393 bcbc
000003f0: 13ca 1fbe 3453 0a3e ddc1 cebe 20b6 933d
-0.30633324 -0.062193505 0.3857477 -0.04829756 0.25459576 -0.23385286 -0.04000301 -0.5018328
-0.23885106 0.042056546 -0.36203352 -0.09601422 -0.098338805 0.3216712 0.27187276 -0.033163495
-0.1698868 0.04762083 -0.10842075 -0.03125043 0.37579608 0.19341975 -0.04140281 -0.08108273
-0.1033498 -0.02774941 -0.3331666 -0.0629099 -0.2088101 0.1845559 -0.05117489 -0.033829127
-0.3244503 -0.17235856 0.005124462 -0.28129795 0.0 -0.36646283 -0.09515179 0.0722637
-0.06218773 -0.105102785 -0.1295543 0.0063340385 -0.0774654 -0.03168799 -0.07909078 -0.12084154
-0.1673095 -0.11290306 -0.08394354 -0.50167584 -0.06474098 -0.12127177 -0.07909569 -0.06334738
-0.016226687 -0.02435891 -0.18662913 -0.036288317 -0.12517895 -0.2596755 0.13374124 -0.31538156
-0.1939424 -0.11572634 0.2398943 -0.089302436 -0.07088692 -0.6744646 -0.05596282 -0.0029059493
-0.20797347 -0.112205364 -0.107950784 -0.18137766 0.0 -0.058375333 -0.08573593 -0.07013039
-0.08875517 0.022199253 -0.030103857 -0.20348294 -0.27071697 0.27285543 -0.07831642 0.31237298
-0.16838086 -0.12385818 -0.26921105 -0.011868514 -0.21474741 -0.24629274 0.023769418 -0.29199958
-0.08796557 -0.36411443 0.3395566 -0.27350667 -0.051362924 -0.048912693 0.22561975 -0.018575843
-0.025011472 -0.07992952 -0.018732471 -0.04439826 -0.26059735 -0.16484925 0.07221571 -0.08826173
-0.019984236 0.26861316 -0.080439344 0.4108332 -0.23078987 0.11030438 0.30869964 0.26365423
-0.08574632 -0.034140747 -0.040745035 -0.08386651 -0.20024557 -0.032348517 0.04361549 0.1875498
-0.407063 0.18001983 -0.1146932 -0.077908345 -0.065136574 -0.10605726 -0.03636415 -0.13951367
-0.2796481 -0.30161932 -0.12581171 -0.012434823 -0.35052302 -0.17981566 0.24206588 -0.15995027
-0.12580359 0.023381038 -0.069099665 -0.082188375 -0.03888949 0.23173787 0.0 -0.18839647
-0.060483944 -0.034075446 -0.14583878 -0.45390412 -0.54076904 -0.029228095 -0.2828908 -0.4884397
0.00023931701 0.026272843 -0.026049988 -0.097831294 -0.038812708 -0.12191121 -0.314468 -0.04567234
0.0083767995 0.042975053 0.012240006 0.11108778 0.046477877 0.13562259 -0.049492594 0.015592753
-0.34636846 -0.20448853 -0.23259917 -0.11557519 -0.092972726 -0.023440313 -0.034625 -0.054826025
0.49835518 0.044157594 -0.1770362 -0.1901276 -0.29052523 -0.106440686 -0.67582935 0.3267046
0.009872706 -0.11248187 -0.26487833 0.0011244187 0.30230784 0.30486995 -0.016015086 -0.06820175
-0.29333586 -0.006562027 0.20649303 -0.22111239 -0.11948555 -0.08872139 -0.044750612 0.035394564
-0.09664836 0.22347401 -0.27924374 -0.064137936 0.20590355 0.0 -0.099680275 0.029141642
-0.2235891 -0.12650122 0.121431306 -0.08818361 -0.6653001 -0.04098849 0.08206772 -0.06625611
-0.15585858 0.027713642 -0.08514203 -0.20018597 0.43616545 -0.08215611 -0.030830884 0.0
-0.06682562 -0.35579738 -0.0020537071 0.34555244 -0.12863195 -0.08068457 -0.06301694 -0.19228984
0.3640744 -0.23789495 -0.042838108 -0.48101598 -0.42606732 -0.8835626 -0.020473288 0.43079326
-0.065793924 -0.0926646 -0.06111576 -0.02301932 -0.15604429 0.13508302 -0.4038228 0.07212472

conv1.lin.weight f4 [256, 137]
00000000: adf0 273c 2fba 5ebe 4ad5 bcbf 81be 7abd
00000010: e341 c33d 4580 613e b04f ad3d 65f0 943d
00000020: 5b7e 18bd 8521 3e3d 460e 61bd 283c cbbd
00000030: 172d 013c 6da7 fb3d f104 43bd 21ce adbd
00000040: 8f43 e0bd 57f6 93bc 0326 a23d 7ce0 80bd
00000050: a2ec d9bd 8a72 44bd bdf5 903e baf1 cebe
00000060: b873 cbbd ea11 bb3b 3f5e 87bd 6325 e43d
00000070: a12b 543d ce37 12bf 7e57 ef3d f403 a43d
00000080: 04c8 d83d 09e3 edbd 7333 8f3d e93f ef3b
00000090: 1108 e43d 7e55 dd3d 92b0 2bbd 707b ecbd
000000a0: 08f7 b03d 5846 da3d 31a6 b9bd 86d0 d7bc
000000b0: 9ded fa3d f89f 9abd 4b5c 6dbb d07b 89bd
000000c0: cd7c b5bd cece fbbd 03f2 47bc 7b42 a43c
000000d0: 1171 fe3c ad92 1a3d 835c d63d e966 88be
000000e0: 9a18 e73d 4672 4dc0 24e4 23bd 5b60 53bd
000000f0: 2cd8 b4bc d2d1 b2bd 6531 c4bd dc04 ae3d
00000100: 00f6 963d bc49 9c3d 7e76 0e3d 8ba6 9cbd
00000110: e7af a93d 61bf 32bd a87c 4cbd 01bf edbd
00000120: 9e6d b4bd 096f e0bd cc29 573d b056 d3bc
00000130: 982f 523c f33e debc b9a5 84bd 771e 8bbc
00000140: d2f9 9abd d22e 9bbd 8041 e7bd f8f5 75bd
00000150: 645a 93bd f222 493d b602 823d 07d9 8fbd
00000160: 1fd8 1f3c b2ed f3bd f45d 813d 872b abbd
00000170: bb22 f33d 4825 9abd e463 52bd 676a 8b3d
00000180: 50c2 79bb 7f72 69bd 9097 e03c 9173 85bd
00000190: 5f29 dbbd a706 0bbd eeb5 9a3c 5250 f539
000001a0: 0715 12bd 2f32 60bc 46e3 a13c fc55 5f3d
000001b0: 19be 20bd 8c74 d6bc 4e63 76bd 9040 8fbd
000001c0: 5c5b 72bd da81 35bd f3b7 a03c 2bb6 f13d
000001d0: 9d9d 433d 26d3 a4bd 1495 45bd 86b2 b73d
000001e0: 5909 b53d b0f8 51bd 89ff cc3d 9125 593d
000001f0: 18e5 debc 46d1 db3c 5ee4 c7bd 97b4 753c
00000200: b69a e2bd 3854 89bd 4408 7c3d 7cd9 7e3d
00000210: cdb0 9c3d b57b 8fbf 99c3 373f a03d cfbe
00000220: bea8 e7be 0aed 3bbe 714b afbd 8dd0 67bd
00000230: d134 4abc c046 d8bd 9ea8 2bbd 594d 863d
00000240: e48e aabd b5d5 77bd 6b62 a1bd 66b4 94bd
00000250: 63f5 5cbd e961 dc3d 9d3a c83d d4d1 f43c
00000260: b0a0 9f3d 1a97 7cbd 7cee 1fbd 5021 9fbc
00000270: dcbe 833d 3084 fa3d 44bd 3c3d 9b48 bcbd
00000280: 0fe0 7abd 39d6 c83d 8b30 063d 2470 0bbd
00000290: 6a8f c9bd 5de3 b53d 6733 afbd 06a5 9d3d
000002a0: 8fb4 fc3d 1c50 e93d 2294 cdbd 286b cdbc
000002b0: 53c6 873d 5fc6 0e3c 1969 263d 6989 eebb
000002c0: 8d19 3fbd 57c6 533d 406e 7cbd 6528 e7bd
000002d0: c22c 563d 0734 38bc 14fd e63d b9c8 96bd
000002e0: 8cfa b0bd 0397 5938 1d96 cebd 3007 cb3d
000002f0: 45b7 bfbd 03c8 a9bd 37ac 81be f593 81bd
00000300: 9eb9 b2bd a62b e9bd 4832 813c 321d 39bb
00000310: 537e 4cbd 1c53 323d 9716 2f3d 1c09 92bd
00000320: 903b 89bc 560f 29bd 514a 523d 37bd 5e3d
00000330: 7547 c43d 35ea 323d 5166 febc 37a4 233d
00000340: 2dcc 133c 3df1 df3d 7e09 1c3d 13b8 57bd
00000350: 5681 a1bd 93d9 ccbc 3e87 3f3d 8a8e 4b3d
00000360: 3602 e03d fdba a6bc a247 be3d 94a3 323d
00000370: 3235 c1bd d98f dbbc 05fd a03c c641 cd3d
00000380: 6383 9dbc dce0 dcbd 84a5 503d ccec b43d
00000390: 235c 9b3d 7fbb 7fbc d467 5a3d 10ab dbbc
000003a0: a968 47bd 0cd1 9abd d6e7 80bd 2c38 debd
000003b0: d0f7 8c3d af7d ebbc 5975 6fbc 6054 4cbc
000003c0: a70b b73d 5b99 833d 90c3 30bd 2331 b63d
000003d0: 0095 d7bd 197d a63d ce90 b6bd 1157 11bc
000003e0: ea77 5ebd 7111 08bd 257e b5bc 20cb ae3c
000003f0: 5eb7 fbbd 33a5 283d 9355 c1bd e521 f93d
0.010250253 -0.21750711 -1.4752591 -0.061216835 0.09534051 0.22021587 0.08462465 0.07272414
-0.037229877 0.046418685 -0.054945253 -0.09923583 0.007884285 0.12287793 -0.047612134 -0.084865816
-0.10950386 -0.0180618 0.079174064 -0.06292817 -0.10640837 -0.047960795 0.28312483 -0.40418798
-0.09934181 0.0057089226 -0.06609773 0.111399435 0.05179942 -0.571164 0.1168661 0.080085665
0.10585025 -0.11615569 0.06992235 0.00730132 0.11134351 0.10807322 -0.041916437 -0.11546981
0.086408675 0.10657948 -0.090649016 -0.026344549 0.122523524 -0.07550043 -0.003621834 -0.067130685
-0.088616945 -0.12295304 -0.012203696 0.020051232 0.031059774 0.037737537 0.10466864 -0.26641014
0.11283989 -3.2100997 -0.040012494 -0.051605564 -0.022075735 -0.08731426 -0.09579734 0.084970206
0.073711395 0.07631251 0.03478097 -0.07648953 0.08285504 -0.043639544 -0.04992357 -0.11608697
-0.0880997 -0.10958678 0.052530095 -0.025798172 0.01282873 -0.027129626 -0.064769216 -0.0169823
-0.07567181 -0.0757729 -0.1129179 -0.060049027 -0.07194975 0.049105592 0.06348173 -0.070238166
0.009756117 -0.11910571 0.06316748 -0.083579116 0.11871859 -0.07526642 -0.051364794 0.06807404
-0.0038110204 -0.056993958 0.02741602 -0.06516183 -0.1070125 -0.03394189 0.018885579 0.00046789885
-0.035664584 -0.01368384 0.019761693 0.05452536 -0.03924379 -0.02617862 -0.060153298 -0.06994736
-0.05916916 -0.04431329 0.019618964 0.11802324 0.047757734 -0.08048086 -0.048237875 0.089695975
0.088396735 -0.051262558 0.10009677 0.05301434 -0.02720885 0.026833188 -0.097603545 0.014996669
-0.11064665 -0.067055166 0.06153132 0.062219128 0.076509096 -1.1209627 0.71782833 -0.40476704
-0.45245928 -0.18352142 -0.08559311 -0.056595374 -0.012341694 -0.105603695 -0.041908853 0.06557722
-0.083280355 -0.06050654 -0.078801 -0.07260971 -0.053944957 0.107608624 0.097768046 0.02988521
0.077943206 -0.06166754 -0.039045796 -0.019425064 0.06432888 0.12232244 0.046078935 -0.09193536
-0.061248835 0.09806485 0.032761138 -0.034042493 -0.09841807 0.08881257 -0.08554726 0.07697491
0.12339126 0.11392233 -0.1003802 -0.02507551 0.06629624 0.008714288 0.040627573 -0.007279564
-0.046655226 0.051702823 -0.06162858 -0.112870015 0.052288778 -0.011242873 0.112787396 -0.073625036
-0.08641538 5.1877472e-05 -0.100872256 0.0991348 -0.09361128 -0.08290102 -0.25326702 -0.06327049
-0.0872681 -0.113852784 0.015771046 -0.0028246162 -0.04992516 0.04353629 0.042746153 -0.07130644
-0.016752034 -0.04127439 0.051340405 0.054379668 0.09583942 0.04368039 -0.031054648 0.03995153
0.009020847 0.109346844 0.03809499 -0.05266578 -0.07885997 -0.025006091 0.046759836 0.049696483
0.10937922 -0.020352835 0.092910066 0.04361303 -0.09433974 -0.02680199 0.0196519 0.10022311
-0.01922769 -0.10785076 0.050939098 0.08834228 0.07585933 -0.015608667 0.053321674 -0.026814967
-0.048683796 -0.07559404 -0.06294219 -0.10850558 0.06883204 -0.028746454 -0.01461538 -0.012471288
0.089377694 0.064257346 -0.043155253 0.08896091 -0.10526466 0.08129329 -0.08914338 -0.008870856
-0.054313578 -0.03321976 -0.022154877 0.021337092 -0.12290834 0.04117317 -0.0944015 0.12164668

conv2.bias f4 [64]
00000000: e2c3 44be 8700 0f3e ee03 d63d 6695 fbbc
00000010: 0a63 0fbd 9530 1ebd deb9 04be 1df9 bebd
00000020: b6a0 6ebd b035 42bd a96c 80be 9f45 09be
00000030: 07da 87bd fac9 9f3b bcee 9c3d 45bb 17be
00000040: 9b6d 98bd 8c01 633e 4042 3c3e f94d 10be
00000050: 31a6 b2bd f549 bf3c 7cdd 4abd 737e 16be
00000060: 8a88 83bd eba7 22ba d4d3 ebbc cf7f c7bd
00000070: 61e5 61be dbc8 b2bd 5685 7abd 7704 e2be
00000080: 5e66 2d3e 856d 78bd 5eaf adbe a535 0f3e
00000090: e6a9 793c 71a0 e2bd d60c 933d fd48 0bbf
000000a0: f8a3 99bd 230b 15be 59af a33d 02b4 28bd
000000b0: 8cab 23bd e9d0 433e 90b2 60bc 1ba3 9abd
000000c0: edee 2a3e 5f66 873e be3e cfbe b782 e93d
000000d0: debd 1bbd f7bb 1e3d c7f4 1a3e b84c 28bd
000000e0: ce75 69bd 41af 2ebe a927 72be b4bc 1bbe
000000f0: 155e 373d 8f41 1dbe 0b5d 2dbd a993 16bd
-0.19215348 0.13965045 0.10449968 -0.030710887 -0.03500656 -0.03862055 -0.12961528 -0.09324858
-0.058258735 -0.04741448 -0.250829 -0.13405465 -0.06633382 0.0048763724 0.076627225 -0.14817531
-0.074427806 0.22168559 0.18384647 -0.14092244 -0.08723105 0.023350695 -0.04952763 -0.14696674
-0.06422527 -0.00062048313 -0.028787531 -0.097411744 -0.22060157 -0.087297164 -0.061162315 -0.4414403
0.16933581 -0.06065132 -0.33922857 0.13985308 0.015238261 -0.11065758 0.07180183 -0.54408246
-0.07501978 -0.1455503 0.07992429 -0.041187294 -0.03995852 0.19122662 -0.013714448 -0.07550641
0.16692705 0.2644529 -0.40477556 0.11401885 -0.03802287 0.038753476 0.15132438 -0.04108879
-0.056997113 -0.17059042 -0.23647942 -0.15208703 0.044767458 -0.1535704 -0.04232506 -0.036761913
